models/discriminator.pth (torch, 51908 bytes, 5 tensors)

model.0.weight f4 [128, 30]
-0.16192695 0.07706165 -0.20254697 0.045401663 0.024891451 -0.07780422 -0.127846 0.034012508
-0.17188512 0.28546888 0.10641079 0.18732141 -0.18059063 0.036764346 0.020181173 0.13014576
0.14020006 -0.021148253 0.02210046 0.0075350073 -0.03130318 0.25001356 0.123278484 -0.08303633
0.18762141 -0.21101588 0.1254575 0.017622342 -0.046899788 0.15187338 -0.1080799 0.13220237
0.025062086 -0.066667795 -0.009099572 0.04141338 -0.056901835 -0.089638 -0.16377899 -0.09556921
0.026431309 -0.03634438 -0.020671422 -0.101142526 0.043025997 -0.17083228 -0.156798 -0.0433043
0.03485855 -0.118227065 0.11877076 0.072687864 -0.17795564 0.001292559 0.052050676 -0.0669323
0.006811268 0.07374598 0.11210509 0.16547713 0.07823557 0.09925407 -0.1347784 -0.19775078
-0.1926483 0.028960861 0.14896348 -0.20801319 0.044681262 0.16937631 -0.19249551 0.094583444
-0.04891528 0.14699131 -0.119968206 -0.03965768 0.16016597 -0.016750429 -0.047134425 0.12508057
-0.15670668 -0.08785054 -0.03864225 -0.00018383519 0.09299842 -0.0647066 0.12879172 -0.13501294
0.13659576 0.10397774 -0.2388821 0.1725671 0.028522048 0.028882744 -0.16462487 0.12696378
0.07077167 -0.04130328 -0.17732622 -0.12714127 -0.1264798 0.15069924 0.036542892 -0.009155118
0.1872545 -0.16002055 -0.081255175 -0.14110829 0.103715174 -0.06939081 -0.21488197 0.1179398
-0.049083482 -0.08047369 0.060429245 -0.25442523 -0.2355978 -0.032659806 -0.16307375 -0.13884243
-0.115311354 0.014922252 -0.09813339 -0.12789962 0.1766856 -0.25259477 -0.1724183 -0.01579248
-0.026270626 0.020640362 -0.046926763 -0.0028988349 0.12556222 0.034341853 -0.02430161 0.07862703
-0.19165073 0.0013574152 -0.10230181 0.10325635 -0.11648955 0.1732998 -0.11238229 0.11453058
0.09061658 0.003572529 0.004681987 0.16574164 0.074986316 0.108076714 0.1944071 0.00010908184
0.13605648 -0.10122593 0.04702564 0.19860983 0.20899235 0.028049292 0.25004533 0.058514487
-0.02845342 0.14178866 -0.1896215 0.105926864 -0.0880463 -0.040420275 0.14433573 0.08124548
-0.10580344 -0.069570065 -0.000849251 -0.12710753 -0.12258743 -0.09328072 0.09327072 -0.0874143
0.066122815 0.18230711 -0.12787135 -0.08546325 0.21323293 0.08220546 0.114863604 0.08817868
0.0555266 0.17666969 0.120504834 0.10242751 -0.09015664 0.10495989 -0.16579409 -0.18091948
0.096499346 -0.14250961 -0.17831627 0.045761395 -0.0161643 -0.050522402 0.14396931 -0.17990795
0.18423356 -0.12738441 0.02016135 0.1963838 0.11554086 0.08086961 0.14162296 0.0783935
-0.0020444612 0.09621957 0.099241026 -0.04842257 0.045245983 0.052606322 0.018830372 0.03531293
0.15701908 0.0009502462 -0.08174897 -0.11368357 -0.12403223 0.06961146 -0.11060001 -0.04250337
-0.16095544 0.17834498 -0.04922849 -0.12108833 -0.16844206 -0.030908173 0.050716873 0.14762755
-0.015228347 0.1617649 -0.06371633 -0.058120653 -0.17802912 0.045964632 0.09466014 0.044457726
-0.022976246 -0.06412417 0.14275463 -0.20034726 -0.042896457 -0.23126896 0.0031754556 -0.061027832
-0.12329236 -0.037657984 -0.032457054 0.05954374 -0.015681738 -0.1770104 -0.15933114 0.17159553
00000000: 2ed0 25be 80d2 9d3d 7968 4fbe 18f7 393d
00000010: 28e9 cb3c d257 9fbd 10ea 02be b350 0b3d
00000020: a702 30be fa28 923e e6ed d93d 2fd1 3f3e
00000030: c0ec 38be 3696 163d fd52 a53c ee44 053e
00000040: 9b90 0f3e 1a3f adbc 060c b53c 39e8 f63b
00000050: c337 00bd c701 803e 6e79 fc3d f40e aabd
00000060: d41f 403e 8c14 58be ee77 003e bb5c 903c
00000070: fe19 40bd b284 1b3e ff58 ddbd 0f60 073e
00000080: 014f cd3c 2089 88bd 5f16 15bc 14a1 293d
00000090: e611 69bd 2194 b7bd aeb5 27be cab9 c3bd
000000a0: 7986 d83c d8dd 14bd 1d57 a9bc d023 cfbd
000000b0: 073c 303d a8ee 2ebe a88f 20be da5f 31bd
000000c0: d7c7 0e3d 0821 f2bd 163e f33d 60dd 943d
000000d0: 013a 36be 156b a93a 1733 553d cd13 89bd
000000e0: 0f31 df3b 2208 973d 5a97 e53d d672 293e
000000f0: f839 a03d b845 cb3d 5903 0abe 2e7f 4abe
00000100: 9945 45be 543f ed3c e289 183e 6901 55be
00000110: b303 373d fc70 2d3e 8b1d 45be f7b4 c13d
00000120: 635b 48bd e484 163e e4b1 f5bd 1770 22bd
00000130: 8c02 243e 3238 89bc 0710 41bd 1f15 003e
00000140: b777 20be fcea b3bd 5647 1ebd e2c3 40b9
00000150: f575 be3d e584 84bd fae1 033e d540 0abe
00000160: c2df 0b3e 48f2 d43d 829d 74be 6eb5 303e
00000170: 12a7 e93c 819b ec3c 6c93 28be cb02 023e
00000180: bdf0 903d a12d 29bd 0195 35be 5231 02be
00000190: ec83 01be e750 1a3e 00ae 153d 59ff 15bc
000001a0: a5bf 3f3e 6ddc 23be 1d69 a6bd b17e 10be
000001b0: 9f68 d43d c51c 8ebd 050a 5cbe 6c8a f13d
000001c0: c30b 49bd 64cf a4bd a884 773d 0644 82be
000001d0: 8d40 71be 4ac6 05bd cefc 26be b62c 0ebe
000001e0: 5c28 ecbd 767c 743c 29fa c8bd 1ef8 02be
000001f0: 12ed 343e 1a54 81be 6c8e 30be 3b5f 81bc
00000200: 7f35 d7bc fa15 a93c 4736 40bd 61fa 3dbb
00000210: 6293 003e 0baa 0c3d 2c14 c7bc 3507 a13d
00000220: 1740 44be 4ceb b13a 9d83 d1bd 1178 d33d
00000230: 1392 eebd 8175 313e b028 e6bd 028f ea3d
00000240: 2f95 b93d 1721 6a3b 5b6b 993b 2db8 293e
00000250: 6d92 993d 5357 dd3d a812 473e dec2 e438
00000260: 6452 0b3e 8a4f cfbd f59d 403d 6060 4b3e
00000270: 1702 563e a1c7 e53c f105 803e e3ac 6f3d
00000280: 2617 e9bc 0c31 113e 232c 42be 2ff0 d83d
00000290: 9e51 b4bd bb8f 25bd bfcc 133e 0864 a63d
000002a0: 79af d8bd c07a 8ebd 45a0 5eba 7a28 02be
000002b0: 1e0f fbbd f609 bfbd b804 bf3d 4506 b3bd
000002c0: 666b 873d b7ae 3a3e b5f0 02be 5b07 afbd
000002d0: bc59 5a3e 565b a83d 9c3d eb3d 0697 b43d
000002e0: dc6f 633d e6e8 343e 3dcb f63d 84c5 d13d
000002f0: 0ba4 b8bd 36f5 d63d edc5 29be f542 39be
00000300: 73a1 c53d 0aee 11be 8a98 36be 4d70 3b3d
00000310: fe6a 84bc 94f0 4ebd b16c 133e ca39 38be
00000320: b9a7 3c3e 0f71 02be 6a29 a53c d618 493e
00000330: b0a0 ec3d f79e a53d 9c05 113e c58c a03d
00000340: 5efc 05bb c40e c53d e13e cb3d bf56 46bd
00000350: da53 393d ba79 573d 2742 9a3c 4aa4 103d
00000360: 9cc9 203e f119 793a 016c a7bd eed2 e8bd
00000370: 9c04 febd 7490 8e3d 4282 e2bd 0418 2ebd
00000380: 81d1 24be 11a0 363e d0a3 49bd 29fd f7bd
00000390: 137c 2cbe 2333 fdbc 7fbc 4f3d ad2b 173e
000003a0: 5180 79bc b3a5 253e b57d 82bd ec0f 6ebd
000003b0: 444d 36be 6945 3c3d 2ddd c13d 4e19 363d
000003c0: ae38 bcbc 8853 83bd 452e 123e d527 4dbe
000003d0: 32b4 2fbd c5d1 6cbe 4e1b 503b 52f8 79bd
000003e0: b480 fcbd 423f 1abd b0f1 04bd 23e4 733d
000003f0: fd76 80bc 3742 35be b427 23be bdb6 2f3e

model.0.bias f4 [128]
0.039041203 -0.11307085 0.10105996 -0.14309588 0.09800849 -0.12838782 0.062244657 -0.115934
0.14286715 0.11263612 -0.011492236 -0.11544013 -0.07880831 0.090347424 -0.053401116 -0.04856476
0.050292015 0.08483487 -0.12074986 -0.14579552 0.10721743 0.032744445 -0.107482 0.12966722
-0.09274965 -0.025764842 -0.17690644 0.009136194 -0.14562164 -0.14632048 -0.03684228 -0.07130373
-0.051324442 -0.013787396 -0.060946085 -0.078376465 0.07210832 0.09144372 -0.007362868 -0.004554382
0.14306693 -0.18456204 0.15633778 0.057950098 0.19840746 -0.1399227 -0.046004288 0.2349536
0.043756027 -0.09417823 0.032747563 -0.14462394 -0.016132448 0.055667277 0.006516771 0.13275729
0.018620504 -0.015062007 -0.15338238 -0.076035194 0.14568251 0.014710263 0.17021535 0.005235551
0.010645142 -0.002905158 0.18240625 0.29260457 -0.14333303 0.14526929 -0.020164946 -0.010527482
-0.054683667 -0.009368017 0.14820476 0.1662192 -0.05609489 0.18142875 0.18644327 0.049917437
-0.17203297 0.060460374 0.06094925 0.23730968 0.08595377 0.17635702 0.22534887 -0.15232116
-0.028626408 0.16487667 0.15655723 0.054169904 -0.021182604 0.07043519 -0.074872255 0.08659566
0.17454775 0.15319881 -0.07230605 -0.0330426 0.075757906 -0.0533754 0.08718578 0.07439342
0.024454515 0.13543679 0.05107478 -0.058774002 -0.16450594 0.15556134 -0.13296293 -0.10280046
0.1539386 0.038058523 0.17800218 -0.106577955 -0.115518555 -0.16861734 0.16531639 0.093073554
0.2215284 0.15558341 -0.15602005 -0.112098575 0.07946457 0.13216625 -0.016660534 -0.08735004
00000000: abe9 1f3d b191 e7bd 86f8 ce3d ba87 12be
00000010: adb8 c83d 1978 03be 41f4 7e3d ce6e edbd
00000020: c44b 123e c4ad e63d ee49 3cbc e06b ecbd
00000030: 4066 a1bd 1208 b93d 21bb 5abd d7eb 46bd
00000040: 00ff 4d3d e8bd ad3d b44b f7bd 6c4b 15be
00000050: d094 db3d 0a1f 063d 861f dcbd 7cc7 043e
00000060: 87f3 bdbd ca10 d3bc f626 35be faaf 153c
00000070: d71d 15be 09d5 15be eee7 16bd b107 92bd
00000080: 9439 52bd 88e4 61bc 9aa2 79bd d783 a0bd
00000090: 87ad 933d d846 bb3d 3744 f1bb ed3c 95bb
000000a0: 2380 123e d5fd 3cbe 0317 203e 155d 6d3d
000000b0: 532b 4b3e e547 0fbe fe6e 3cbd ad97 703e
000000c0: 8539 333d 84e0 c0bd 4f22 063d 4c18 14be
000000d0: 3228 84bc 5f03 643d a38a d53b 87f1 073e
000000e0: 078a 983c a3c6 76bc 4510 1dbe 57b8 9bbd
000000f0: cc2d 153e 5103 713c ef4c 2e3e fc8e ab3b
00000100: f668 2e3c 7764 3ebb b4c8 3a3e 44d0 953e
00000110: e5c5 12be 79c1 143e f530 a5bc 767b 2cbc
00000120: fbfb 5fbd 507c 19bc fdc2 173e 5e35 2a3e
00000130: c1c3 65bd 75c8 393e fcea 3e3e 3a76 4c3d
00000140: 6929 30be 4ca5 773d eca5 793d 4f01 733e
00000150: 8808 b03d ef96 343e dbc1 663e 14fa 1bbe
00000160: ee81 eabc 6ed5 283e 8a50 203e 43e1 5d3d
00000170: 2487 adbc 5340 903d a056 99bd 1159 b13d
00000180: a5bc 323e 26e0 1c3e 3215 94bd ad57 07bd
00000190: f626 9b3d 2aa0 5abd 758e b23d 945b 983d
000001a0: d654 c83c f1af 0a3e ca33 513d 02bd 70bd
000001b0: 3f74 28be 794b 1f3e 6f27 08be 0c89 d2bd
000001c0: 15a2 1d3e 41e3 1b3d 3446 363e 8b45 dabd
000001d0: fe94 ecbd 06aa 2cbe b348 293e 599d be3d
000001e0: 57d8 623e 4251 1f3e b8c3 1fbe f093 e5bd
000001f0: 52be a23d 9756 073e ac7b 88bc 94e4 b2bd

model.2.weight f4 [64, 128]
0.04529156 -0.03243557 0.05658362 0.07861224 0.05592973 0.09113699 0.030124228 0.017940475
-0.0029208765 0.017393045 -0.102803394 -0.03205649 0.08898055 0.053842586 -0.05387082 0.09504461
-0.11259243 -0.002842283 0.01253739 -0.03706917 -0.06517643 0.03894762 0.031647153 0.001442637
0.14134555 0.07899916 0.022871168 -0.055564083 0.062650606 -0.08728266 0.019339688 0.09215398
-0.043885354 0.0013531876 0.012564419 0.10817311 0.006079906 -0.04851592 -0.07760672 -0.05346019
-0.016325647 0.09152341 0.043390956 0.13394238 -0.0030941018 0.0638999 -0.0043316903 -0.036902472
-0.05785168 0.0021552532 -0.0060316348 0.06932741 -0.025481936 -0.039338306 0.06305475 -0.040782608
-0.07181914 0.059738602 0.053783022 -0.020994186 -0.08203152 0.09199489 -4.566931e-05 -0.013621484
0.059261203 -0.05230964 -0.0066403397 -0.118172474 -0.02304793 -0.00569049 0.03781814 0.09546158
0.11840026 -0.05280262 0.002601661 -0.06834063 0.015990935 -0.08868447 0.08106251 0.062384415
0.1382927 -0.07369057 0.04702534 -0.022987165 0.06749889 0.02528893 -0.066802405 -0.02535701
0.10411992 -0.07057584 -0.037069123 -0.06380091 -0.0029025127 -0.0107106585 0.020801337 0.047485664
0.060237207 -0.04716411 -0.013025125 0.03474174 -0.029682577 -0.007470478 -0.01666232 -0.06792487
0.099601775 -0.04049636 0.077180065 -0.001782392 -0.037776064 0.0033556235 -0.0010951376 -0.06272838
-0.085254304 0.08318205 0.047073532 0.00698349 0.10678872 0.076436765 -0.0906528 0.1079798
-0.06297041 0.039753534 0.107470125 0.06575172 -0.0053546117 0.0056195655 0.03598872 0.12173394
0.09521386 0.02317241 -0.010837524 0.020971749 0.0018113266 0.10116549 0.08183707 -0.014016169
0.0964281 -0.030905422 0.07084451 0.03391314 0.058718864 0.029274989 -0.03720614 0.024110002
-0.045803737 0.03985622 0.12732284 0.10998988 -0.09612625 -0.10278281 0.03607481 -0.040908225
0.20859146 0.11355069 0.031974558 0.051535137 -0.03495687 3.9960294e-05 -0.07171485 0.12974802
0.100478105 0.0019851518 -0.0401322 -0.041991107 0.013111295 0.02365243 -0.104514785 -0.01732305
-0.041482057 0.02291995 0.005975583 0.12831207 -0.017704202 -0.06618949 0.039710253 0.007921533
-0.033751287 0.05660034 -0.09979342 0.064017296 -0.00442471 -0.025954038 -0.024155568 -0.052983105
0.06087025 0.030474162 -0.0033615935 0.041967217 -0.021051433 0.10689495 -0.082100384 0.029054899
0.12622939 0.09029271 0.15502733 -0.049135063 0.119764335 0.00070504803 0.049106304 0.11565068
0.07430103 0.013060912 0.07553965 0.100619875 0.13762362 -0.013416623 0.09881373 -0.05699809
-0.010543593 -0.08345996 -0.022440938 0.0738563 0.14244041 0.0895213 -0.10801885 0.10423154
0.043015525 0.05812907 -0.042356417 0.009207792 0.068777256 -0.061203346 0.05105973 0.12405217
-0.062322695 0.08277759 0.080741785 0.022741228 -0.057681967 0.111039914 0.004143078 0.003030522
0.10903437 0.017773146 0.019362558 0.1296456 0.012230137 0.031504963 0.003362197 -0.0043688454
0.03897979 0.1012492 -0.10547402 0.12633345 -0.011073646 0.10608147 0.03090702 -0.011640026
0.042582016 0.05293264 0.113142096 0.030118076 0.106630936 0.009830633 0.04110562 0.06993683
00000000: a583 393d 29db 04bd 3ac4 673d 74ff a03d
00000010: 9316 653d 08a6 ba3d 16c7 f63c e7f7 923c
00000020: 2d6c 3fbb dc7b 8e3c 968a d2bd ab4d 03bd
00000030: 6f3b b63d 0b8a 5c3d a6a7 5cbd c0a6 c23d
00000040: dc96 e6bd 9945 3abb a069 4d3c d8d5 17bd
00000050: 387b 85bd 8a87 1f3d 72a0 013d dd16 bd3a
00000060: e3bc 103e 50ca a13d 515c bb3c 2a97 63bd
00000070: f64e 803d 40c1 b2bd 446e 9e3c 3abb bc3d
00000080: 21c1 33bd 715d b13a feda 4d3c dd89 dd3d
00000090: f339 c73b a1b8 46bd 46f0 9ebd 12f9 5abd
000000a0: 5dbd 85bc a070 bb3d b7ba 313d 3128 093e
000000b0: 6ac6 4abb f3dd 823d daf0 8dbb 0c27 17bd
000000c0: e2f5 6cbd 263f 0d3b 05a5 c5bb 87fb 8d3d
000000d0: 7ebf d0bc 3421 21bd d922 813d aa0b 27bd
000000e0: ea15 93bd 77b0 743d 964b 5c3d 00fc abbc
000000f0: 2400 a8bd d167 bc3d 0c8d 3fb8 a52c 5fbc
00000100: e0bb 723d a242 56bd 3597 d9bb 6904 f2bd
00000110: 03cf bcbc 4a77 babb 32e7 1a3d 5c81 c33d
00000120: d67b f23d 8f47 58bd a180 2a3b 2cf6 8bbd
00000130: 6cff 823c 34a0 b5bd 1a04 a63d cd86 7f3d
00000140: 9a9c 0d3e 15eb 96bd a59d 403d 944f bcbc
00000150: dc3c 8a3d bb2a cf3c b3cf 88bd 81b9 cfbc
00000160: d33c d53d 118a 90bd cbd5 17bd 0daa 82bd
00000170: 1538 3ebb c27b 2fbc 9167 aa3c 5480 423d
00000180: 4abb 763d 272f 41bd 5567 55bc 5b4d 0e3d
00000190: e028 f3bc e9ca f4bb 6b7f 88bc 321c 8bbd
000001a0: 04fc cb3d 83df 25bd 9510 9e3d 279f e9ba
000001b0: 13bb 1abd 05ea 5b3b b88a 8fba bd77 80bd
000001c0: cf99 aebd 5a5b aa3d 2dd0 403d c3d5 e43b
000001d0: 0bb4 da3d e18a 9c3d 2da8 b9bd 8324 dd3d
000001e0: a1f6 80bd 9ad4 223d 4c19 dc3d d6a8 863d
000001f0: bd75 afbb 5524 b83b e868 133d a54f f93d
00000200: 7cff c23d 11d4 bd3c df8f 31bc f2cc ab3c
00000210: 096a ed3a da2f cf3d 329a a73d 13a4 65bc
00000220: 187c c53d 5e2d fdbc ed16 913d 81e8 0a3d
00000230: 3183 703d 1ad2 ef3c 7765 18bd 5782 c53c
00000240: b39c 3bbd 4740 233d eb60 023e 6042 e13d
00000250: d7dd c4bd cb7f d2bd 2ec3 133d 628f 27bd
00000260: 0099 553e 448d e83d c1f7 023d 8216 533d
00000270: ef2e 0fbd 0a9b 2738 3cdf 92bd aadc 043e
00000280: 77c7 cd3d 5219 023b a961 24bd defe 2bbd
00000290: c2d0 563c bec2 c13c d90b d6bd 12e9 8dbc
000002a0: 17e9 29bd 9ec2 bb3c d3ce c33b 3d64 033e
000002b0: 6708 91bc 5b8e 87bd 38a7 223d 51c9 013c
000002c0: ca3e 0abd c2d5 673d 7e60 ccbd 801b 833d
000002d0: 28fd 90bb 909d d4bc e6e1 c5bc d004 59bd
000002e0: 1553 793d f3a4 f93c 2e4e 5cbb d1e5 2b3d
000002f0: 0e74 acbc bdeb da3d 3f24 a8bd 8a04 ee3c
00000300: 4742 013e 62eb b83d 7cbf 1e3e d941 49bd
00000310: 0147 f53d f9d2 383a b123 493d 44da ec3d
00000320: 232b 983d 6ffd 553c 88b4 9a3d cb11 ce3d
00000330: 35ed 0c3e 65d1 5bbc da5e ca3d d476 69bd
00000340: 09bf 2cbc 0eed aabd 0fd6 b7bc f941 973d
00000350: e6db 113e f156 b73d fd38 ddbd 5877 d53d
00000360: 0c31 303d bf18 6e3d ec7d 2dbd 47dc 163c
00000370: 17db 8c3d 5cb0 7abd 0224 513d 100f fe3d
00000380: 1546 7fbd 4c87 a93d f35b a53d d04b ba3c
00000390: ed43 6cbd e568 e33d a8c2 873b b99b 463b
000003a0: 694d df3d fd98 913c 3a9e 9e3c d1c1 043e
000003b0: ea60 483c 590b 013d 4e58 5c3b 8828 8fbb
000003c0: 46a9 1f3d be5b cf3d c302 d8bd 8e5d 013e
000003d0: 3d6e 35bc 3e41 d93d b830 fd3c cfb5 3ebc
000003e0: 7b6a 2e3d e5cf 583d 0bb7 e73d 2fba f63c
000003f0: 5261 da3d aa10 213c 5e5e 283d 0a3b 8f3d

model.2.bias f4 [64]
0.0031030972 0.03027591 0.05293984 -0.13384135 -0.0425736 0.08959892 -0.11009097 0.017564801
0.1561696 0.16572422 0.06715101 0.09279938 -0.011591299 -0.11041944 0.18984096 -0.025711047
0.0009951429 -0.03438915 -0.0054387045 0.15822186 -0.054891087 -0.073625535 -0.0012525688 -0.04277663
-0.063356295 0.16606708 -0.11334305 -0.0028672693 -0.11466789 -0.15187435 0.13048992 -0.11746786
-0.047423318 -0.017505765 -0.045900304 0.083336584 0.15093109 0.050478242 -0.1027882 0.015348591
-0.057088934 0.17176895 -0.04007566 -0.09257909 0.002179802 -0.032149334 0.10167744 -0.04500499
-0.066525 0.004105175 -0.06810529 -0.15339978 -0.10739942 0.1779056 -0.07542677 -0.042983763
0.0034480013 -0.026798034 -0.12338668 0.02899359 0.15654074 -0.1105818 -0.084094055 0.016993359
00000000: 555d 4b3b 2f05 f83c 72d7 583d b50d 09be
00000010: a861 2ebd a37f b73d 6077 e1bd 0fe4 8f3c
00000020: ecea 1f3e 9cb3 293e 7886 893d 9a0d be3d
00000030: 6fe9 3dbc 9623 e2bd ab65 423e f99f d2bc
00000040: 746f 823a a3db 0cbd 2937 b2bb e904 223e
00000050: 7ad5 60bd fcc8 96bd 3c2d a4ba 8c36 2fbd
00000060: f2c0 81bd 7d0d 2a3e 6720 e8bd cce8 3bbb
00000070: 00d7 eabd f384 1bbe 269f 053e fd92 f0bd
00000080: f43e 42bd 4068 8fbc f501 3cbd 5fac aa3d
00000090: ae8d 1a3e 46c2 4e3d 9f82 d2bd a878 7b3c
000000a0: 16d6 69bd 33e4 2f3e 6026 24bd 1b9a bdbd
000000b0: 02db 0e3b 05af 03bd 433c d03d 2757 38bd
000000c0: 423e 88bd b484 863b c97a 8bbd d514 1dbe
000000d0: 3af4 dbbd e32c 363e 5a79 9abd be0f 30bd
000000e0: ddf7 613b 8d87 dbbc 28b2 fcbd f783 ed3c
000000f0: 374c 203e b678 e2bd 8139 acbd a835 8b3c

model.4.weight f4 [1, 64]
0.12513986 0.19781168 -0.08010441 0.11436902 -0.10132001 -0.19049762 0.12091899 0.045038342
-0.07798227 -0.11812375 -0.16606519 -0.14626257 0.019048378 0.06720423 -0.12871195 0.0916388
-0.024115004 -0.076946534 -0.09776258 -0.14924136 0.09343596 0.07831195 0.061078534 0.053707063
-0.04775145 -0.23375995 0.062131803 0.07502289 0.21038508 0.10205795 -0.105874404 0.078770384
0.14359954 0.055672158 -0.015919514 -0.0793251 -0.16047558 -0.103161916 0.10982297 0.116592415
0.13949817 -0.13615139 0.091521025 0.11380804 -0.04513913 -0.08068115 -0.11107325 -0.042681456
0.08324792 -0.16485967 -0.055858407 0.13075441 0.17368846 -0.1093178 0.12912486 0.15085131
-0.12322968 0.18816604 0.10713799 -0.2341002 -0.15606129 0.0604081 -0.07906539 -0.13616504
00000000: aa24 003e 258f 4a3e c80d a4bd 4e3a ea3d
00000010: de80 cfbd cf11 43be 60a4 f73d 207a 383d
00000020: 2bb5 9fbd ddea f1bd fe0c 2abe dbc5 15be
00000030: 580b 9c3c 5fa2 893d 11cd 03be 20ad bb3d
00000040: d48c c5bc 2596 9dbd bf37 c8bd bad2 18be
00000050: 5a5b bf3d 0462 a03d 7c2d 7a3d f0fb 5b3d
00000060: 0697 43bd c55e 6fbe eb7d 7e3d 9aa5 993d
00000070: 306f 573e c203 d13d aed4 d8bd 5e52 a13d
00000080: c20b 133e 7d08 643d a469 82bc 3375 a2bd
00000090: b653 24be 8e46 d3bd deea e03d 01c8 ee3d
000000a0: 9cd8 0e3e 456b 0bbe 606f bb3d 3114 e93d
000000b0: cfe3 38bd 293c a5bd 5f7a e3bd c0d2 2ebd
000000c0: e37d aa3d f9d0 28be c9cb 64bd 7ce4 053e
000000d0: 63db 313e 03e2 dfbd 4f39 043e c478 1a3e
000000e0: d85f fcbd 99ae 403e 2a6b db3d f6b7 6fbe
000000f0: 88ce 1fbe 7c6e 773d 09ed a1bd d96e 0bbe
