models/generator.pth (torch, 55772 bytes, 6 tensors)

model.0.weight f4 [64, 16]
0.1898493 0.2667991 0.19280204 -0.012734593 0.033677597 -0.26204193 -0.21171072 0.055721875
0.17177026 0.095315985 -0.2603883 -0.006199633 -0.04367679 0.12806739 0.105230644 -0.25887775
-0.052649617 -0.22502683 -0.010201916 0.093717046 -0.15800105 0.23528627 0.23936763 0.03464691
0.16538295 -0.0133003285 0.10447153 -0.09807351 -0.19411762 0.13812493 0.06486093 -0.04999293
0.2962549 -0.017041732 0.01697741 0.2016834 0.22209235 -0.13799453 -0.14926922 0.18924083
-0.24455856 -0.119518735 -0.25309342 0.028202478 -0.2778877 0.19684002 -0.17436355 0.29617402
-0.20615724 0.15101092 -0.123524666 -0.048794277 0.13922213 0.17056006 -0.089179195 -0.123354055
-0.050403126 -0.12281443 -0.011411828 0.20390616 -0.02735224 0.099598385 -0.14765349 0.1920269
0.1469399 -0.13028927 0.10349784 0.052215632 0.093121335 -0.12795462 -0.23472013 -0.21385837
0.11905977 -0.1591007 -0.26800248 0.267686 -0.2568625 -0.022223186 0.19411811 -0.17246063
-0.15872133 -0.054028302 -0.23450921 -0.14617518 -0.115094505 -0.050993755 -0.18999872 -0.24828437
-0.015966678 0.13234597 -0.19938016 -0.08106976 0.023697104 0.1738365 0.053950947 -0.11675147
0.00573152 0.25587705 -0.11071334 0.16588858 0.09872889 0.19903389 0.045284715 -0.119236
0.10555344 -0.18493408 -0.11482815 -0.24461134 0.2466812 0.18367691 0.16717076 -0.112529166
-0.054017074 0.042159215 0.12961926 -0.18013908 -0.05120015 -0.014884071 -0.017738102 -0.038621668
-0.033351507 0.08703644 0.030689787 -0.13734241 -0.032438815 0.022821745 -0.2291449 -0.021126572
-0.18133521 0.004586222 0.17814666 -0.03607572 -0.07878816 -0.041514236 -0.0894065 -0.16896977
0.2344795 0.14062414 -0.03307239 -0.037772723 0.17705645 0.032998256 0.06181305 -0.1444566
0.124327436 -0.051039927 -0.22389074 -0.15714721 -0.19941548 0.27213532 -0.2456725 0.017736267
-0.13180646 -0.07414127 -0.15484859 0.008006493 0.21117485 -0.048523854 -0.19496536 -0.028431257
0.1916306 -0.16069873 -0.009132299 0.061989523 0.22712941 -0.049289014 -0.06681726 -0.09126544
-0.16129959 0.18844712 0.1695273 -0.08172316 -0.14182653 -0.21439359 -0.26701707 -0.17442302
-0.1662607 -0.02928518 -0.06368777 -0.2598456 -0.21445155 -0.24868226 -0.2595088 -0.2249461
0.07468772 0.19711846 0.1686946 -0.20723285 0.26596552 -0.0414652 0.15486033 -0.113512665
-0.24164337 0.10315256 -0.042394064 -0.01639147 0.032887507 -0.13957499 -0.08454964 -0.16719471
0.18071054 -0.11906603 0.15910257 -0.21775061 -0.0903149 -0.010137129 0.2303688 0.21474238
-0.13390063 -0.105805844 -0.102360226 0.10833687 0.16583264 0.1762277 -0.07550938 -0.16299097
0.14660941 -0.09924999 0.23735686 -0.14006297 0.16995914 0.09666906 0.141231 0.2615219
-0.24566036 0.17929573 0.20168282 -0.24617617 0.21231449 -0.039476488 -0.127567 -0.019989125
0.05798795 0.11886356 0.13267854 -0.02597889 0.08867051 -0.020842066 0.1670135 -0.1178891
0.2525882 -0.21357973 -0.26407933 -0.15914583 -0.124420345 0.031055093 0.19177468 -0.17333417
-0.006098671 0.07142525 -0.1289721 -0.24416171 -0.035422 0.11335154 -0.15746485 -0.21348691
00000000: db67 423e e499 883e e66d 453e c1a4 50bc
00000010: 85f1 093d 5c2a 86be b2ca 58be 9f3c 643d
00000020: 8be4 2f3e 0735 c33d 9e51 85be 4a26 cbbb
00000030: 6fe6 32bd 1924 033e 2a83 d73d a08b 84be
00000040: 20a7 57bd 6f6d 66be f025 27bc b9ee bf3d
00000050: 07cb 21be e2ee 703e ca1c 753e ebe9 0d3d
00000060: 265a 293e 9fe9 59bc 2bf5 d53d c4da c8bd
00000070: c5c6 46be 9f70 0d3e cfd5 843d 63c5 4cbd
00000080: b9ae 973e 1a9b 8bbc 3614 8b3c 1886 4e3e
00000090: 2d6c 633e 704e 0dbe 08da 18be 59c8 413e
000000a0: 8f6d 7abe 3dc6 f4bd 7695 81be e208 e73c
000000b0: 4c47 8ebe 6e90 493e 5c8c 32be 1fa4 973e
000000c0: e21a 53be 9ba2 1a3e 80fa fcbd 82dc 47bd
000000d0: 3f90 0e3e 4ca7 2e3e 95a3 b6bd 0da1 fcbd
000000e0: 8273 4ebd 2286 fbbd adf8 3abc c7cc 503e
000000f0: ce11 e0bc 3dfa cb3d 7a32 17be b3a2 443e
00000100: 6a77 163e 8d6a 05be adf6 d33d 0fe0 553d
00000110: 66b6 be3d 8906 03be 795a 70be b0fd 5abe
00000120: 9cd5 f33d 4beb 22be 9f37 89be 240e 893e
00000130: 7b83 83be 660d b6bc e6c6 463e 8599 30be
00000140: d887 22be c84c 5dbd 2f23 70be f2ae 15be
00000150: abb6 ebbd d4de 50bd 068f 42be 423e 7ebe
00000160: 8dcc 82bc b485 073e 502a 4cbe e707 a6bd
00000170: 6e20 c23c 3202 323e abfb 5c3d 651b efbd
00000180: 79cf bb3b 5102 833e adbd e2bd b2de 293e
00000190: 5f32 ca3d 8acf 4b3e 777c 393d 0132 f4bd
000001a0: 672c d83d 5c5f 3dbe 052b ebbd 657b 7abe
000001b0: ff99 7c3e cd15 3c3e d02e 2b3e b175 e6bd
000001c0: 0241 5dbd 24af 2c3d e9ba 043e 6176 38be
000001d0: 40b7 51bd 52dc 73bc 7f4f 91bc c131 1ebd
000001e0: 979b 08bd 2940 b23d 2669 fb3c 7da3 0cbe
000001f0: 90de 04bd abf4 ba3c f6a4 6abe a211 adbc
00000200: f0af 39be 0548 963b 146c 363e 22c4 13bd
00000210: b05b a1bd d50a 2abd c11a b7bd 6906 2dbe
00000220: 651b 703e c6ff 0f3e ea76 07bd 92b7 1abd
00000230: 494e 353e 2e29 073d ae2f 7d3d 6eec 13be
00000240: 629f fe3d 3e0f 51bd 9d43 65be 33eb 20be
00000250: 9233 4cbe 5255 8b3e 9291 7bbe a64b 913c
00000260: 46f8 06be 61d7 97bd a190 1ebe aa2d 033c
00000270: 383e 583e f3c0 46bd 00a5 47be abe8 e8bc
00000280: d03a 443e 358e 24be a39f 15bc bae8 7d3d
00000290: 9d94 683e 47e3 49bd 7dd7 88bd 60e9 babd
000002a0: b82b 25be 48f8 403e 9198 2d3e 795e a7bd
000002b0: f93a 11be fe89 5bbe 76b6 88be f39b 32be
000002c0: 3f40 2abe 79e7 efbc bc6e 82bd 7c0a 85be
000002d0: 3099 5bbe 90a6 7ebe 56de 84be 4558 66be
000002e0: e0f5 983d 6cd9 493e 47be 2c3e d934 54be
000002f0: a22c 883e 6ad7 29bd b593 1e3e 5479 e8bd
00000300: 5c71 77be a641 d33d 66a5 2dbd 6747 86bc
00000310: 0db5 063d bfec 0ebe 5d28 adbd 1735 2bbe
00000320: 2f0c 393e e4d8 f3bd c9eb 223e 04fa 5ebe
00000330: 05f7 b8bd 3316 26bc cce5 6b3e 6de5 5b3e
00000340: 3f1d 09be bcb0 d8bd 3da2 d1bd b9df dd3d
00000350: 08d0 293e 0975 343e a9a4 9abd 1be7 26be
00000360: c720 163e 9443 cbbd ad0d 733e ab6c 0fbe
00000370: c509 2e3e 6efa c53d dc9e 103e 33e6 853e
00000380: 648e 7bbe 4d99 373e f185 4e3e 9b15 7cbe
00000390: f868 593e 19b2 21bd eca0 02be 3cc0 a3bc
000003a0: c684 6d3d bd6e f33d e2dc 073e aed1 d4bc
000003b0: e298 b53d fbbc aabc 9605 2b3e d76f f1bd
000003c0: 3e53 813e a5b4 5abe 6835 87be 20f7 22be
000003d0: 18d0 febd 4067 fe3c 9560 443e 837e 31be
000003e0: 5cd7 c7bb 6747 923d 4311 04be 8705 7abe
000003f0: a916 11bd da24 e83d 773e 21be 509c 5abe

model.0.bias f4 [64]
-0.13859645 0.22931862 -0.039202638 0.03824195 -0.16604541 0.09252207 -0.109596945 0.052177936
-0.018321376 -0.05494203 0.0616102 0.21689521 0.09061056 0.0898689 0.14668556 0.05449931
0.14937256 -0.04061075 0.021618443 -0.13663067 -0.07647683 -0.14797185 -0.016010283 0.18920611
-0.19865134 0.19417448 0.17608988 0.17506272 0.23047781 -0.11336425 0.07673797 -0.2865366
-0.14508852 -0.105159 -0.13454975 0.0592277 -0.048283678 -0.04515626 0.23520936 0.19457425
-0.020708721 -0.010223019 -0.072490804 0.14031193 -0.10795348 0.044707756 -0.10046394 -0.013950054
-0.09820641 -0.073604204 -0.13522078 -0.09892039 -0.05251334 0.08922952 -0.14184533 -0.26562923
-0.18110551 -0.18607317 -0.1313107 -0.18065137 0.067685306 -0.20954314 0.28838727 -0.10750055
00000000: 3aec 0dbe 80d2 6a3e f292 20bd 97a3 1c3d
00000010: cf07 2abe 367c bd3d 5d74 e0bd 88b8 553d
00000020: b616 96bc e50a 61bd fa5a 7c3d c719 5e3e
00000030: 0792 b93d 300d b83d bd34 163e ab3a 5f3d
00000040: 1ff5 183e 7557 26bd 2919 b13c e9e8 0bbe
00000050: e29f 9cbd ef85 17be ff27 83bc 3fbf 413e
00000060: 426b 4bbe add5 463e e850 343e a443 333e
00000070: 6002 6c3e 842b e8bd cc28 9d3d edb4 92be
00000080: 1692 14be 9a5d d7bd 69c7 09be bf98 723d
00000090: 1bc5 45bd c5f5 38bd b9da 703e 793e 473e
000000a0: 56a5 a9bc 737e 27bc 0f76 94bd eead 0f3e
000000b0: b716 ddbd 7b1f 373d 0ac0 cdbd c48e 64bc
000000c0: 7120 c9bd cdbd 96bd 5177 0abe c696 cabd
000000d0: 3a18 57bd f7bd b63d e73f 11be 8e00 88be
000000e0: b973 39be f789 3ebe 5076 06be acfc 38be
000000f0: 989e 8a3d 7a92 56be 7fa7 933e 4029 dcbd

model.2.weight f4 [128, 64]
0.094085276 0.048913673 0.16087928 0.084047526 0.13322267 0.052004155 0.12769328 -0.07379495
0.030863129 0.11505991 0.064592466 -0.04070918 -0.0039529568 -0.046345223 0.036234677 -0.04925372
0.15546131 0.13262667 -0.049318045 0.06621883 -0.073636174 0.012183028 0.040158514 0.10797185
0.025890479 -0.0823168 -0.039298147 0.07532928 0.072465315 -0.08419316 0.15151973 0.04872243
-0.072704196 0.04512126 -0.03986729 0.08410698 0.103242606 0.039677754 0.13163555 0.10188982
0.116761126 -0.078976326 0.084960215 0.072295636 -0.07676576 0.085776106 0.09579195 0.08644903
-0.043680236 0.08172397 -0.05792944 -0.00691801 0.017956568 0.049748536 0.10972292 0.08081194
-0.043182526 -0.074603334 0.028036645 0.087466255 -0.058076534 0.039786395 0.06808455 -0.05798482
-0.05907786 0.0470775 0.12911999 -0.014837848 0.08199387 0.025525507 -0.08029923 -0.10787405
0.08096576 -0.008960379 0.027409662 -0.036659513 0.039518803 -0.07473164 0.09966384 0.12565398
0.080835365 -0.02813366 -0.09055 -0.08124028 -0.030835701 -0.06362819 0.033807565 0.12383087
0.07709304 0.01577388 -0.026619133 0.012272997 -0.048726358 0.097137816 0.028436683 -0.08122021
-0.080184005 0.12513188 -0.065510355 0.111316815 0.09641248 0.043165334 0.052760724 0.009060654
0.055263408 0.05751381 -0.022049638 0.13550021 0.08707378 0.07809865 0.09387315 0.037286397
0.11517924 0.15300035 0.014653635 0.091837175 0.08966473 0.10052728 0.09096119 -0.06903662
0.106230654 0.05812053 -0.031554695 0.079484954 -0.046689525 0.11920941 0.10854772 -0.080170624
0.0068667964 0.18264546 0.119865656 0.07254483 0.1580301 -0.0020723315 0.04675616 0.056995563
0.060073126 0.009846726 0.18454547 -0.012357715 0.0676914 0.15927821 0.1587522 0.16565605
0.17662442 -0.018496603 0.10814236 -0.053027596 0.18285072 0.076322265 0.10709762 0.08081182
0.14589643 -0.026306856 0.0012235276 0.13362184 0.09873165 0.13417141 -0.04949136 -0.062009797
0.050750475 0.101282746 0.05482371 -0.031825833 0.045087807 0.14583391 0.045713134 0.10161116
0.044644617 0.026477136 0.006234039 0.05939171 -0.0031227486 0.11650752 0.012831196 -0.029776685
0.065828875 0.093685254 0.12905365 0.09286589 0.10254292 0.053509656 0.16173755 0.1042898
0.043042116 0.026810266 0.06128744 -0.004734341 0.10235265 0.04349499 0.039587967 0.117479466
-0.02491752 0.020598099 -0.04397956 0.072968915 -0.05992103 -0.1047649 0.06320373 0.013872113
-0.036480475 -0.04584298 -0.056092095 -0.049006004 -0.004515056 -0.055028692 -0.10260697 0.010297421
0.014176327 0.059263386 -0.0011697195 -0.08952399 -0.08092207 0.080700845 -0.03236799 0.081699036
-0.10416724 0.10316276 0.06485738 -0.10625235 -0.05790332 0.05929752 0.025739316 -0.01007211
0.10696091 0.13312012 0.038472302 0.03444391 0.11075687 0.10338157 0.02499813 -0.019681295
-0.10102598 0.0028470298 -0.0035672723 0.052476455 -0.080315165 -0.024981715 -0.10090755 -0.04447368
0.012601555 0.020138865 0.078344576 -0.02082863 0.116254695 -0.0955063 -0.045388803 -0.07735568
-0.039707907 0.13699742 -0.02836935 0.089979365 0.05563504 0.060574528 0.059872497 0.09196861
00000000: c8af c03d b459 483d 8abd 243e 1c21 ac3d
00000010: 866b 083e 4f02 553d 07c2 023e cf21 97bd
00000020: acd4 fc3c 88a4 eb3d 0e49 843d abbe 26bd
00000030: ce87 81bb 7dd4 3dbd d06a 143d 45be 49bd
00000040: 4031 1f3e 49cf 073e b801 4abd bd9d 873d
00000050: 90ce 96bd 539b 473c 417d 243d 5820 dd3d
00000060: 4518 d43c b695 a8bd 18f7 20bd 3d46 9a3d
00000070: b268 943d 776d acbd fd27 1b3e 2c91 473d
00000080: f0e5 94bd 12d1 383d e24b 23bd 4840 ac3d
00000090: dc70 d33d 2485 223d 78cb 063e 9cab d03d
000000a0: 7520 ef3d 57be a1bd 9fff ad3d bc0f 943d
000000b0: 5e37 9dbd 62ab af3d 922e c43d 300c b13d
000000c0: 0cea 32bd e65e a73d 6c47 6dbd 79b0 e2bb
000000d0: a719 933c 1fc5 4b3d 69b6 e03d bb80 a53d
000000e0: 29e0 30bd a2c9 98bd 1bad e53c 8221 b33d
000000f0: a9e1 6dbd 0ff7 223d ea6f 8b3d 7e81 6dbd
00000100: a0fb 71bd 56d4 403d 0838 043e 721a 73bc
00000110: 67ec a73d de1a d13c ec73 a4bd 12ed dcbd
00000120: 60d1 a53d 8ece 12bc 3a8a e03c 4928 16bd
00000130: 78de 213d e70c 99bd 8e1c cc3d 70ab 003e
00000140: 038d a53d 9078 e6bc 4772 b9bd 4e61 a6bd
00000150: 279b fcbc 7f4f 82bd cd79 0a3d 0a9b fd3d
00000160: f5e2 9d3d 3938 813c 5e10 dabc ae14 493c
00000170: 4a95 47bd 31f0 c63d 0cf4 e83c c856 a6bd
00000180: 8337 a4bd 9222 003e 4b2a 86bd 12fa e33d
00000190: e873 c53d 22ce 303d a11b 583d 2373 143c
000001a0: e25b 623d 9a93 6b3d 71a1 b4bc 91c0 0a3e
000001b0: bd53 b23d 2ff2 9f3d 9140 c03d 9fb9 183d
000001c0: 18e3 eb3d 20ac 1c3e cd15 703c 2115 bc3d
000001d0: 24a2 b73d 3fe1 cd3d dc49 ba3d 1263 8dbd
000001e0: 758f d93d cb0f 6e3d 7f3f 01bd 02c9 a23d
000001f0: 843d 3fbd 1024 f43d 444e de3d 7f30 a4bd
00000200: dd02 e13b 6907 3b3e 207c f53d 6292 943d
00000210: a4d2 213e f4cf 07bb 6383 3f3d 2e74 693d
00000220: 3d0f 763d 2a54 213c 7df9 3c3e 0378 4abc
00000230: caa1 8a3d d419 233e f08f 223e bda1 293e
00000240: 08dd 343e 3086 97bc be79 dd3d 7733 59bd
00000250: 383d 3b3e d94e 9c3d ff55 db3d ab80 a53d
00000260: e065 153e 7a81 d7bc c65e a03a 2ad4 083e
00000270: d233 ca3d 3b64 093e 74b7 4abd fcfd 7dbd
00000280: bbdf 4f3d 546d cf3d d48e 603d ce5b 02bd
00000290: fead 383d 7c55 153e b23d 3b3d 8319 d03d
000002a0: 46dd 363d 94e6 d83c e946 cc3b b944 733d
000002b0: 07a7 4cbb 7f9b ee3d f039 523c 3cee f3bc
000002c0: 4ad1 863d 0ede bf3d a426 043e 7930 be3d
000002d0: 0602 d23d f12c 5b3d 879e 253e e495 d53d
000002e0: ee4c 303d 34a1 db3c 8a08 7b3d 8822 9bbb
000002f0: 449e d13d cd27 323d fe26 223d 1399 f03d
00000300: d41f ccbc 58bd a83c e923 34bd ba70 953d
00000310: c16f 75bd fb8e d6bd f570 813d dc47 633c
00000320: 8d6c 15bd d9c5 3bbd d3c0 65bd 85ba 48bd
00000330: 09f3 93bb c465 61bd 9a23 d2bd 84b6 283c
00000340: d343 683c 2abe 723d 4651 99ba 5b58 b7bd
00000350: 78ba a5bd 7c46 a53d 4c94 04bd d351 a73d
00000360: a255 d5bd ff46 d33d f2d3 843d d59a d9bd
00000370: 082c 6dbd f5e1 723d 42db d23c 7e05 25bc
00000380: 520e db3d a450 083e 2295 1d3d 0f15 0d3d
00000390: 7fd4 e23d b7b9 d33d e1c8 cc3c ab3a a1bc
000003a0: b6e6 cebd 3c95 3a3b e6c8 69bb 8df1 563d
000003b0: 477c a4bd 74a6 ccbc 9ea8 cebd 092a 36bd
000003c0: c176 4e3c 43fa a43c 1f73 a03d cea0 aabc
000003d0: f116 ee3d cf98 c3bd 9ce9 39bd a86c 9ebd
000003e0: c2a4 22bd 0d49 0c3e d766 e8bc 1a47 b83d
000003f0: 91e1 633d ff1c 783d dd3c 753d 0a5a bc3d

model.2.bias f4 [128]
0.06063274 -0.014415 0.08618361 0.028188467 -0.040468816 0.030296326 -0.033007875 0.03953398
0.106922455 0.097274736 0.07253002 0.07629872 0.055189893 -0.10637118 0.07602898 -0.12001471
0.043850698 0.11746058 0.14037897 0.003438476 0.12900987 0.07267289 -0.06689542 -0.0129187545
-0.027991325 0.055633314 -0.026945896 -0.038640365 0.06873461 0.070355184 0.0687759 -0.10093401
-0.01921589 -0.047908384 0.15281251 0.006771441 -0.08845499 0.1055421 0.12815215 0.129688
0.060966495 -0.09102508 0.14577833 -0.023324087 -0.04368181 0.067427665 0.06769902 0.004952299
0.091042005 0.044075694 0.052595515 -0.025126882 0.1041 0.07950977 -0.107665785 -0.08617762
-0.030641854 0.13654901 0.05192509 0.11341703 0.08048845 -0.11440668 0.010861754 0.06999371
0.13173124 0.024971416 0.13598263 0.08998597 -0.08986477 -0.05741489 0.10347226 0.043472633
-0.067129955 -0.05256057 0.08429044 0.10014538 0.04710668 -0.10052063 0.161464 -0.081810415
0.120988995 0.051247228 -0.026042022 -0.061018925 0.0515233 0.047186874 0.071427844 0.10085479
0.06409903 0.15306576 0.06308981 -0.059592847 0.018451478 0.09278269 0.017566917 0.049788218
-0.08642265 -0.054880183 0.008629588 -0.07551049 0.13444765 0.093985155 0.040770374 0.09586701
-0.043469086 -0.05262219 0.07994075 0.026648924 0.012049925 0.011323369 -0.068040535 -0.033307806
0.013441361 -0.13257378 0.12099793 -0.04411353 0.037844103 -0.07718909 0.032018602 0.05022161
0.11245354 -0.0071755224 0.052556563 -0.055460677 0.013360614 2.6201822e-05 -0.02641472 0.08672624
00000000: 095a 783d e42c 6cbc 0881 b03d 80eb e63c
00000010: a1c2 25bd 0030 f83c 4433 07bd 62ee 213d
00000020: 29fa da3d fa37 c73d 9e8a 943d 8142 9c3d
00000030: cc0e 623d 22d9 d9bd 15b5 9b3d 46ca f5bd
00000040: ca9c 333d 2c8f f03d 81bf 0f3e 0e58 613b
00000050: 2a1b 043e 86d5 943d 7700 89bd 2fa9 53bc
00000060: 104e e5bc c2df 633d a4bd dcbc 5c45 1ebd
00000070: bbc4 8c3d 6116 903d 61da 8c3d 7eb6 cebd
00000080: a46a 9dbc 953b 44bd e27a 1c3e f7e2 dd3b
00000090: e427 b5bd 7526 d83d 513a 033e eecc 043e
000000a0: 01b8 793d 5b6b babd ea46 153e 2812 bfbc
000000b0: b3eb 32bd 8417 8a3d c9a5 8a3d e546 a23b
000000c0: 3b74 ba3d b788 343d 656e 573d e4d6 cdbc
000000d0: 6132 d53d 05d6 a23d e17f dcbd e47d b0bd
000000e0: a004 fbbc 81d3 0b3e 67af 543d 3047 e83d
000000f0: 21d7 a43d 0d4e eabd 80f5 313c dd58 8f3d
00000100: 8ee4 063e db90 cc3c 083f 0b3e 904a b83d
00000110: 050b b8bd e02b 6bbd 44e9 d33d 5c10 323d
00000120: 6e7b 89bd c149 57bd 77a0 ac3d 0519 cd3d
00000130: eff2 403d c3dd cdbd d256 253e 388c a7bd
00000140: 14c9 f73d 9de8 513d 1456 d5bc fbee 79bd
00000150: 190a 533d 0647 413d c348 923d f58c ce3d
00000160: 5a46 833d 45bd 1c3e 3b35 813d a117 74bd
00000170: 8e27 973c da04 be3d 7fe8 8f3c bbee 4b3d
00000180: 5cfe b0bd 0bca 60bd 1e63 0d3c 3ea5 9abd
00000190: a5ac 093e 4a7b c03d d6fe 263d ec55 c43d
000001a0: a40c 32bd 5e8a 57bd fab7 a33d d84e da3c
000001b0: 0c6d 453c a785 393c d658 8bbd c46d 08bd
000001c0: 2739 5c3c 6cc1 07be c3cd f73d 64b0 34bd
000001d0: 6b02 1b3d 5015 9ebd f025 033d 2db5 4d3d
000001e0: 0b4e e63d a520 ebbb 8d45 573d bc2a 63bd
000001f0: 7ae6 5a3c fccb db37 af63 d8bc 879d b13d

model.4.weight f4 [30, 128]
-0.12740184 0.03777254 -0.07370609 0.024117265 0.052465342 -0.005979268 -0.04921329 -0.08428503
-0.054836493 -0.11451016 0.06277515 -0.051203415 -0.0113519505 0.037420932 0.053579018 0.073475435
-0.061914556 0.038829852 -0.08241487 -0.06956387 -0.12075796 -0.010429124 -0.06329793 -0.0043817363
-0.10212914 -0.026922816 0.0180102 -0.08925723 -0.06308015 -0.054251637 -0.011239426 0.051868826
0.038988467 -0.06917586 -0.07158431 -0.05031664 -0.027454 -0.010373361 -0.023540476 -0.08024281
-0.08039097 -0.043279737 -0.09468894 0.020906568 0.038733017 0.07663107 0.0034993393 0.0717217
0.06321948 0.015877713 -0.11786271 -0.027615359 -0.016880065 0.027161099 -0.11906947 0.08424048
-0.012201381 -0.06444723 0.02256283 0.019597594 0.060562525 0.031019308 -0.12071996 0.049677532
-0.085963406 -0.056858964 -0.00045940923 -0.020233627 -0.033043854 -0.03719646 0.0075846026 -0.054592513
0.036909133 0.06284841 -0.09126925 -0.04906312 -0.10211736 0.0009872064 -0.075919405 -0.02826579
0.041556958 -0.038148012 0.07623097 -0.003506426 -0.06718891 -0.011240874 -0.046207283 -0.070018075
0.055387434 -0.12781076 0.037729118 -0.09598032 0.011672797 -0.09686557 -0.0026395642 -0.04763461
-0.09053239 0.03658549 -0.06758388 0.06459216 -0.06700009 0.07605294 -0.06402171 -0.08304594
0.018465634 -0.069737025 -0.08309736 0.045424536 0.004378107 -0.071309485 0.08086284 -0.00603357
0.018023575 0.067277424 -0.016664715 -0.1397791 0.00180633 -0.08357427 -0.011724361 -0.050424222
-0.02659359 -0.062293 -0.044021778 -0.10942094 -0.09834351 -0.044604436 0.017232208 -0.0045391046
0.011034039 0.040297963 0.004198377 -0.042439837 0.08250191 -0.053375937 0.047931276 -0.037554894
-0.091040134 0.037504613 0.08131667 0.040068027 0.059937943 -0.04395148 0.017163621 -0.08682377
0.005327869 0.09891004 -0.041540843 0.09119691 0.045350894 -0.036469672 0.020632332 -0.030269757
-0.023109961 -0.02203833 0.018126559 0.010416419 -0.08000072 0.082878254 0.065913014 0.054562517
0.066697165 0.0042463844 -0.08325459 0.015185479 0.08721042 0.0030629847 0.080794 0.04386476
0.023549307 -0.032131042 -0.07137604 0.10397501 0.05179594 0.06756026 -0.033589277 -0.039067272
-0.003336303 -0.08949603 0.04626199 0.02243597 -0.02388482 -0.001046519 0.08827945 -0.034391116
0.017547572 -0.013411414 0.024506986 0.08288874 -0.015705245 0.04568878 0.07578719 -0.08506654
0.062840775 0.060798425 0.041969858 -0.061909743 -0.02310271 0.008711491 -0.060268052 0.028678188
0.06724481 -0.017308814 -0.09271105 0.0417257 0.0148930205 -0.021193758 -0.03522777 -0.030784618
0.06521283 -0.07541612 -0.008831763 0.06789154 0.061930593 0.020050302 0.05027425 0.05728356
-0.107003674 -0.036313616 0.013589287 -0.050391905 0.025134396 -0.029121697 0.053515695 -0.04493572
0.08722321 0.013659414 -0.04128691 0.07710374 -0.07589248 0.019040423 0.004434461 -0.09400647
0.055471983 0.027919356 -0.025614584 -0.0009773088 -0.064253524 -0.039990596 -0.0029986212 -0.047758568
-0.054874785 -0.0030554314 -0.03930027 0.08562585 -0.07364366 -0.04640438 -0.092412524 0.005744322
-0.14121689 0.040552393 0.025458366 -0.015046782 -0.048040044 -0.05820271 0.04086494 -0.03728946
00000000: a175 02be 61b7 1a3d 38f3 96bd 9291 c53c
00000010: e6e5 563d bced c3bb e093 49bd a19d acbd
00000020: 3b9c 60bd 4e84 eabd 4290 803d acba 51bd
00000030: 88fd 39bc b146 193d ac75 5b3d 4a7a 963d
00000040: 1e9a 7dbd 0d0c 1f3d 21c9 a8bd 8177 8ebd
00000050: f34f f7bd ebde 2abc 58a2 81bd ab94 8fbb
00000060: 1529 d1bd 3d8d dcbc 208a 933c 7fcc b6bd
00000070: 2a30 81bd f736 5ebd 9225 38bc 6874 543d
00000080: 5fb2 1f3d 13ac 8dbd cb9a 92bd d218 4ebd
00000090: 36e7 e0bc 08f5 29bc f5d7 c0bc 5856 a4bd
000000a0: 05a4 a4bd 1846 31bd 46ec c1bd 4044 ab3c
000000b0: 83a6 1e3d c0f0 9c3d 2c55 653b d4e2 923d
000000c0: 3779 813d fa11 823c 0162 f1bd 9b39 e2bc
000000d0: 1048 8abc f480 de3c b2da f3bd 4686 ac3d
000000e0: 4de8 47bc e9fc 83bd afd5 b83c 228b a03c
000000f0: 6910 783d 341c fe3c 073c f7bd ab7a 4b3d
00000100: 950d b0bd f2e4 68bd dddc f0b9 fec0 a5bc
00000110: fe58 07bd 515b 18bd 4288 f83b 669c 5fbd
00000120: 082e 173d abb6 803d 5feb babd 69f6 48bd
00000130: e822 d1bd 2665 813a a27b 9bbd a88d e7bc
00000140: a137 2a3d 1741 1cbd fc1e 9c3d 11cc 65bb
00000150: 579a 89bd a52b 38bc d943 3dbd a365 8fbd
00000160: efdd 623d d3e0 02be d989 1a3d 5491 c4bd
00000170: 423f 3f3c 7561 c6bd 8afc 2cbb 821c 43bd
00000180: 0c69 b9bd abda 153d 6b69 8abd e548 843d
00000190: 5837 89bd a5c1 9b3d d01d 83bd fd13 aabd
000001a0: 3e45 973c 49d2 8ebd f32e aabd 140f 3a3d
000001b0: 3976 8f3b b50a 92bd 6b9b a53d 41b5 c5bb
000001c0: 2da6 933c bfc8 893d 7184 88bc 4122 0fbe
000001d0: 61c2 ec3a fd28 abbd 8917 40bc a189 4ebd
000001e0: cdda d9bc f226 7fbd 2e50 34bd 1618 e0bd
000001f0: 5268 c9bd 24b3 36bd 8f2a 8d3c c5bc 94bb
00000200: 1dc8 343c 7a0f 253d 8a92 893b 65d5 2dbd
00000210: c3f6 a83d baa0 5abd 9653 443d 29d3 19bd
00000220: 4073 babd 709e 193d 5b89 a63d 5f1e 243d
00000230: 7d81 753d 7806 34bd b99a 8c3c a9d0 b1bd
00000240: 6895 ae3b 5991 ca3d bb26 2abd 72c5 ba3d
00000250: dcc1 393d 3961 15bd 2305 a93c 48f8 f7bc
00000260: 1a51 bdbc ba89 b4bc 267e 943c a1a9 2a3c
00000270: 6bd7 a3bd 13bc a93d 67fd 863d f27c 5f3d
00000280: 8698 883d 4125 8b3b 6281 aabd 84cc 783c
00000290: 609b b23d 5bbc 483b 5377 a53d 89ab 333d
000002a0: 7aea c03c d79b 03bd 9a2d 92bd daf0 d43d
000002b0: fb27 543d 095d 8a3d e994 09bd 0105 20bd
000002c0: e0a5 5abb b249 b7bd 367d 3d3d a4cb b73c
000002d0: 19aa c3bc 5a2b 89ba dbcb b43d b3dd 0cbd
000002e0: edbf 8f3c 8cbb 5bbc e0c2 c83c 92c1 a93d
000002f0: 49a8 80bc 2824 3b3d 5036 9b3d 5e37 aebd
00000300: aab2 803d c507 793d 96e8 2b3d 1295 7dbd
00000310: e541 bdbc a4ba 0e3c a2db 76bd 85ee ea3c
00000320: a6b7 893d 37cb 8dbc 4adf bdbd 91e8 2a3d
00000330: db01 743c 889e adbc ff4a 10bd 0630 fcbc
00000340: 4e8e 853d c473 9abd 19b3 10bc b80a 8b3d
00000350: efaa 7d3d 8840 a43c 5fec 4d3d 2ba2 6a3d
00000360: be24 dbbd 96bd 14bd 9aa5 5e3c be67 4ebd
00000370: a6e6 cd3c a090 eebc 4633 5b3d 840e 38bd
00000380: 15a2 b23d bccb 5f3c 771c 29bd 91e8 9d3d
00000390: 846d 9bbd a9fa 9b3c f44e 913b 7786 c0bd
000003a0: 9736 633d 22b7 e43c add5 d1bc 0b19 80ba
000003b0: 5a97 83bd 2ecd 23bd 8484 44bb 7d9e 43bd
000003c0: 62c4 60bd a23d 48bb 52f9 20bd 9b5c af3d
000003d0: 7dd2 96bd 8512 3ebd c742 bdbd de3a bc3b
000003e0: 299b 10be 441a 263d 108e d03c c786 76bc
000003f0: a3c5 44bd f765 6ebd ff61 273d d5bc 18bd

model.4.bias f4 [30]
-0.11875282 -0.024786556 -0.06866933 -0.004118329 0.091673516 -0.037740402 -0.068884395 -0.1019403
0.07543825 0.0551642 -0.036596544 -0.0033040608 -0.056342326 -0.05111631 -0.071243554 0.022203306
0.066837735 -0.07172035 0.06685637 0.055142537 -0.0462676 0.035197712 -0.039100364 -0.0066432636
-0.066280566 0.007939628 -0.037302002 -0.083580196 -0.027297663 0.033276424
00000000: ae34 f3bd 2d0d cbbc 81a2 8cbd 0cf3 86bb
00000010: 53bf bb3d ae95 1abd 4313 8dbd 13c6 d0bd
00000020: 5f7f 9a3d dbf3 613d 42e6 15bd f188 58bb
00000030: 36c7 66bd 565f 51bd 24e8 91bd b5e3 b53c
00000040: 39e2 883d 1ee2 92bd feeb 883d 24dd 613d
00000050: 1883 3dbd 7a2b 103d b427 20bd bcaf d9bb
00000060: 1bbe 87bd 3715 023c fcc9 18bd 182c abbd
00000070: 599f dfbc dc4c 083d
